…
 + 1 = 1051.\nThe packagetorchinfo provides asummary() function that neatly sum-\nmarizes this information. We specify the size of the input and see the size\nof each tensor as it passes through layers of the network.\nIn[20]: summary(hit_model,\ninput_size=X_train.shape,\ncol_names=[ 'input_size' ,\n'output_size' ,\n'num_params' ])\nOut[20]: =====================================================================\nLayer (type:depth-idx) Input Shape Output Shape Param #\n=====================================================================\nHittersModel [175, 19] [175] --\nFlatten: 1-1 [175, 19] [175, 19] --\nSequential: 1-2 [175, 19] [175, 1] --\nLinear: 2-1 [175, 19] [175, 50] 1,000\nReLU: 2-2 [175, 50] [175, 50] --\nDropout: 2-3 [175, 50] [175, 50] --\nLinear: 2-4 [175, 50] [175, 1] 51\n=====================================================================\nTotal params: 1,051\nTrainable params: 1,051\nWe have truncated the end of the output slightly, here and in subsequent\nuses.\nWe now need to transform our training data into a form accessible to\ntorch. The basic datatype intorch is atensor, which is very similar to\nan ndarray from early chapters. We also note here thattorc
…
-10-17", "last_modified_date": "2024-10-15"}, "hash": "9ddcfbd5397d05ff4f078964c0709364bcde19664ebede2090887ae45abd0c93", "class_name": "RelatedNodeInfo"}}, "metadata_template": "{key}: {value}", "metadata_separator": "\n", "text": "446 10. Deep Learning\nIn[39]: summary(mnist_model,\ninput_data=X_,\ncol_names=[ 'input_size' ,\n'output_size' ,\n'num_params' ])\nOut[39]: =====================================================================\nLayer (type:depth-idx) Input Shape Output Shape Param #\n=====================================================================\nMNISTModel [256, 1, 28, 28] [256, 10] --\nSequential: 1-1 [256, 1, 28, 28] [256, 10] --\nSequential: 2-1 [256, 1, 28, 28] [256, 256] --\nFlatten: 3-1 [256, 1, 28, 28] [256, 784] --\nLinear: 3-2 [256, 784] [256, 256] 200,960\nReLU: 3-3 [256, 256] [256, 256] --\nDropout: 3-4 [256, 256] [256, 256] --\nSequential: 2-2 [256, 256] [256, 128] --\nLinear: 3-5 [256, 256] [256, 128] 32,896\nReLU: 3-6 [256, 128] [256, 128] --\nDropout: 3-7 [256, 128] [256, 128] --\nLinear: 2-3 [256, 128] [256, 10] 1,290\n=====================================================================\nTotal params: 235,146\nTrainable params: 235,146\nHaving set up both the model and the data module, fitting this model is\nnow almost identical to theHitters example. In contrast to our regression\nmodel, here we will use theSimpleModule.classification() method whichSimpleModule.\nclassifi-\ncation()\nuses the cross-entropy l
…
h": "414a1336f0b83d673e548c42707fe6758154d6aa6fc4003f1e7e7edae2a61686", "class_name": "RelatedNodeInfo"}}, "metadata_template": "{key}: {value}", "metadata_separator": "\n", "text": "(We had created examples\nof X_ earlier.)\nIn[55]: cifar_model = CIFARModel()\nsummary(cifar_model,\ninput_data=X_,\ncol_names=[ 'input_size' ,\n'output_size' ,\n'num_params' ])\nOut[55]: ======================================================================\nLayer (type:depth-idx) Input Shape Output Shape Param #\n======================================================================\nCIFARModel [128, 3, 32, 32] [128, 100] --\nSequential: 1-1 [128, 3, 32, 32] [128, 256, 2, 2] --\nBuildingBlock: 2-1 [128, 3, 32, 32] [128, 32, 16, 16] --\nConv2d: 3-1 [128, 3, 32, 32] [128, 32, 32, 32] 896\nReLU: 3-2 [128, 32, 32, 32] [128, 32, 32, 32] --\nMaxPool2d: 3-3 [128, 32, 32, 32] [128, 32, 16, 16] --\nBuildingBlock: 2-2 [128, 32, 16, 16] [128, 64, 8, 8] --\nConv2d: 3-4 [128, 32, 16, 16] [128, 64, 16, 16] 18,496\nReLU: 3-5 [128, 64, 16, 16] [128, 64, 16, 16] --\nMaxPool2d: 3-6 [128, 64, 16, 16] [128, 64, 8, 8] --\nBuildingBlock: 2-3 [128, 64, 8, 8] [128, 128, 4, 4] --\nConv2d: 3-7 [128, 64, 8, 8] [128, 128, 8, 8] 73,856\nReLU: 3-8 [128, 128, 8, 8] [128, 128, 8, 8] --\nMaxPool2d: 3-9 [128, 128, 8, 8] [128, 128, 4, 4] --\nBuildingBlock: 2-4 [128, 128, 4, 4] [128, 256, 2, 2] --\nConv2d: 3-10 [128, 128, 4, 4] [128, 256, 4, 4] 295,168\nReLU: 3-11 [128, 256, 4, 4] [128, 256, 4, 4] --\nMaxPool2d: 3-12 [128, 256, 4, 4] [128, 256, 2, 2] --\nSequential: 1-2 [128, 1024] [128, 100] --\nDropout: 2-5 [128, 1024] [128, 1024] --\nLinear: 2-6 [128, 1024] [128, 512] 524,800", "mimetype": "text/plain", "start_char_idx": 580, "end_char_idx": 2018, "metadata_seperator": "\n", "text_template": "{metadata_str}\n\n{content}", "class_name": "TextNode"}, "__type__": "1"}, "9d6b35e8-4f72-45da-9bd8-138229db33b3": {"__data__": {"id_": "9d6b35e8-4f72-45da-9bd8-138229db33b3", "embedding": null, "metadata": {"page_label": "458", "file_name": "ISLP_website.pdf", "file_path": "c:\\
…
